ezkl-experiment/network.onnx (onnx, 70340 bytes, 8 tensors)

fc.weight f4 [6, 32]
0	0xbfa361b7	-1.2764195
1	0x3f563f63	0.8369047
2	0xbe0de7de	-0.13857982
3	0xbf43dd72	-0.76509774
4	0x3f4fd908	0.8119054
5	0xbf2d75c0	-0.677578
6	0x3f752fee	0.9577626
7	0x3ed79aec	0.42110384
8	0xbef629a1	-0.48078635
9	0xbf52b71b	-0.82310647
10	0xbf6d829c	-0.9277742
11	0x3f917160	1.1362724
12	0xbe7e68ec	-0.24844712
13	0xbf5d4e85	-0.86447936
14	0x3f8855d5	1.0651194
15	0x3f083f73	0.53221816
16	0x3dabd0b5	0.08389417
17	0xbf91d66a	-1.1393559
18	0x3f0bf4c7	0.54670376
19	0xbf92a52e	-1.1456659
20	0xbf3dabe5	-0.74090415
21	0xbf80610b	-1.0029615
22	0x3f54b210	0.830842
23	0x3dbd9c66	0.09258346
24	0xbe79c61e	-0.24391982
25	0xbf9e6e0f	-1.2377337
26	0x3f7b7224	0.9822104
27	0x3f88168a	1.0631878
28	0xbf9b9862	-1.2155879
29	0x3eba4967	0.36384127
30	0x3f86a82e	1.0520074
31	0xbe92b7bf	-0.28655812
32	0xbf3b942e	-0.7327298
33	0xbf279e8e	-0.6547631
34	0xbfc62e10	-1.5482807
35	0x3eb0b4b1	0.34512857
36	0x3fd0e9b9	1.6321326
37	0x3f9b8707	1.2150582
38	0xbf1e7d6c	-0.6191013
39	0x3fb93cbb	1.4471658
40	0x3e77433e	0.24146745
41	0x3fc950f3	1.5727829
42	0x3f70b6ba	0.9402882
43	0x3f38b79c	0.72155166
44	0x3f5fe29c	0.87455153
45	0xbeb6ffdb	-0.35742077
46	0xbf1a361b	-0.6023881
47	0xbec9633e	-0.39333528
48	0x3f639e67	0.8891358
49	0xbe9ff5b2	-0.31242138
50	0xbfae6a41	-1.3626176
51	0xbf7845aa	-0.969813
52	0x3f5a04c4	0.8516352
53	0xbf4ffd4f	-0.81245893
54	0xbe7b22f6	-0.24525055
55	0x3ed636a5	0.41838565
56	0x3f635bba	0.8881184
57	0xbef88e07	-0.48545858
58	0xbef93551	-0.4867349
59	0xbf5858cb	-0.8451049
60	0xbdb1f4a5	-0.0868924
61	0xbf8a58ac	-1.080831
62	0xbf1eed79	-0.62081105
63	0xbf6545c7	-0.89559597
64	0x3f67a144	0.90480447
65	0xbf647db4	-0.8925431
66	0xbd74e4e6	-0.059788607
67	0xbf6a73b3	-0.91582793
68	0xbe18b83c	-0.1491403
69	0xbe70aeef	-0.23504232
70	0xbf8d001c	-1.1015658
71	0xbe50ea6b	-0.20401923
72	0x3f945f72	1.1591628
73	0xbe900a2a	-0.28132755
74	0xbe7879b3	-0.24265175
75	0xbf2621f8	-0.6489558
76	0xbe82ca9a	-0.25545198
77	0x3f0ac09d	0.54200155
78	0xbe4a1642	-0.19735053
79	0xbf2abcc9	-0.66694313
80	0xbe8517db	-0.25994763
81	0x3f4fb00e	0.81128013
82	0x3f098b3e	0.5372809
83	0x3f2c450d	0.67292863
84	0xbeda755d	-0.42667666
85	0x3f09be25	0.5380576
86	0x3f1f5a9d	0.6224764
87	0x3fa31193	1.2739738
88	0xbf525795	-0.8216489
89	0x3fa783e7	1.3087128
90	0x3ef1fb5e	0.4726209
91	0x3eb3de56	0.35130566
92	0x3fa664b8	1.2999487
93	0x3ee45f21	0.44603828
94	0x3e193636	0.14962086
95	0x3e8ce6ac	0.2751974
96	0xbf984b74	-1.1898026
97	0x3f84883c	1.0354075
98	0xbeaf713f	-0.34266087
99	0xbd83c369	-0.06433756
100	0x3f979a82	1.1844027
101	0x3f528eaf	0.8224897
102	0xbdec31c7	-0.11532932
103	0x3e686f06	0.22698602
104	0xbf68cf62	-0.9094144
105	0x3fb96bde	1.4486043
106	0xbf41adcb	-0.7565581
107	0xbf073fcd	-0.5283173
108	0x3e8f0694	0.27934706
109	0xbd5cd368	-0.05391255
110	0x3e40ff2f	0.18847345
111	0x400ac19a	2.1680665
112	0x3ee2d1fa	0.44300824
113	0x3eb593cc	0.35464323
114	0xbf922c60	-1.1419792
115	0xbf7b97c3	-0.98278445
116	0x3eb1a538	0.34696364
117	0xbfcc7d6d	-1.5975777
118	0xbf435058	-0.7629447
119	0x3edcd18b	0.4312862
120	0xbf769a21	-0.9632893
121	0x3f7bc57a	0.983482
122	0xbee3b927	-0.44477198
123	0x3e38e873	0.18057422
124	0xbe8f916f	-0.28040645
125	0xc06f2741	-3.7367709
126	0x3f745599	0.9544311
127	0x3ea5e467	0.3240082
128	0xbce52a70	-0.027974337
129	0x3f128e96	0.5724882
130	0x3f75b32b	0.95976514
131	0x3f2649fe	0.64956653
132	0xbeb2acf7	-0.34897587
133	0xbf0d3943	-0.551655
134	0x3ec8b368	0.39199376
135	0xbf57009c	-0.83985305
136	0xbf920d8e	-1.1410387
137	0xbf2754ba	-0.6536366
138	0xbfa933d1	-1.3218938
139	0x3f1397bc	0.57653403
140	0x3f9f8326	1.2461898
141	0xbf8d6ac6	-1.104821
142	0xbf6b6919	-0.9195724
143	0x3fcffc47	1.6248864
144	0x3f851fc3	1.0400318
145	0x3f666983	0.9000475
146	0xbe05dad7	-0.13071762
147	0x3e96bff0	0.29443312
148	0x3f809c3c	1.0047679
149	0x3de90fcd	0.11379967
150	0xbf785bfa	-0.97015345
151	0xbf3e1d3c	-0.7426336
152	0xbd98f78f	-0.07469093
153	0x3ec2f6a9	0.38078812
154	0xbf78862d	-0.97079736
155	0xbf1e7eaf	-0.61912054
156	0x3f368489	0.7129598
157	0xbf846127	-1.0342149
158	0xbf803fcd	-1.001947
159	0xbf1a905f	-0.6037654
160	0xbe6d2223	-0.23157553
161	0x3f49a35b	0.78764886
162	0x3f138e43	0.5763895
163	0x3f6c1496	0.9221891
164	0xbef9cae2	-0.487876
165	0x3eb36ba8	0.35043073
166	0x3f4dd538	0.8040347
167	0xbf095528	-0.53645563
168	0xb5a8e5d0	-1.258386e-06
169	0x3fcb4548	1.5880518
170	0x3ef5c434	0.48001254
171	0xbf61b170	-0.88161373
172	0xbf4b35e7	-0.79379123
173	0x3f4e9179	0.80690724
174	0x3f849c07	1.0360116
175	0xbf1e6405	-0.6187137
176	0xbf6f18b9	-0.933971
177	0xbf60b1dd	-0.877714
178	0xbf8b30df	-1.0874289
179	0xbcccb737	-0.024989707
180	0xbc6f1694	-0.014592785
181	0x3e8a829d	0.27052775
182	0xbf9b4b69	-1.2132388
183	0xbf21de68	-0.6322999
184	0x3f18bac6	0.59659994
185	0xbf1f445b	-0.6221368
186	0xbf823b36	-1.017432
187	0xbf185887	-0.5951008
188	0xbf726085	-0.9467853
189	0xbedf7296	-0.4364211
190	0x3f164f49	0.5871473
191	0x3f313582	0.6922227

fc.bias f4 [6]
0	0x3e8434b1	0.2582145
1	0xbe3dbc02	-0.1852875
2	0xbc8414fe	-0.016123291
3	0xc0c21b64	-6.0658436
4	0xbefc8567	-0.49320528
5	0xbe9ccb7d	-0.30624

onnx::LSTM_180 f4 [1, 128, 29]
0	0x3f3ec652	0.7452136
1	0xbf5a51bd	-0.8528097
2	0x3f018357	0.50591034
3	0xbd7f5ace	-0.062342457
4	0xbe32ff52	-0.1748021
5	0x3da08b32	0.078390494
6	0xbdddf55b	-0.108378135
7	0xbd093460	-0.033497214
8	0xbdbe118b	-0.0928069
9	0xbf854c1f	-1.0413855
10	0xbd4f4790	-0.050605357
11	0xbead2bfc	-0.3382262
12	0x3ddb311c	0.10702726
13	0xbced3558	-0.0289561
14	0x3ed29785	0.41131225
15	0x3f205327	0.6262688
16	0x3ece1338	0.40249038
17	0xbed21055	-0.41028085
18	0xbf0a93bf	-0.5413169
19	0x3ef5ce01	0.4800873
20	0xbe0a4c8f	-0.13505767
21	0x3d447582	0.047963627
22	0xbd5d591b	-0.054040056
23	0x3eff23b5	0.4983193
24	0xbf2da7e4	-0.67834306
25	0xbefba4ef	-0.49149272
26	0xbdea8f00	-0.11453056
27	0xbe882f6d	-0.26598683
28	0xbd58d2a2	-0.05293525
29	0x3df306b7	0.11866515
30	0xbd50d9a6	-0.050988816
31	0x3e5af9d4	0.21384364
32	0x3e308f9d	0.17242284
33	0xbdbc3327	-0.09189444
34	0xbe27c002	-0.16381839
35	0xbe099093	-0.13434057
36	0x3d28d6c8	0.041220456
37	0x3daf9dea	0.085750416
38	0x3e21d846	0.15805158
39	0x3da3b846	0.07994132
40	0x3e69baa7	0.22825108
41	0x3cc139f6	0.023587208
42	0x3da5acf6	0.0808963
43	0x3ed09d98	0.40745234
44	0x3e4a2fd3	0.19744806
45	0x3e32745e	0.17427203
46	0xbeafb967	-0.34321138
47	0x3d2da2e1	0.04239166
48	0x3e34c2a1	0.1765237
49	0xbd2372f4	-0.03990455
50	0xbb93f6c1	-0.0045154993
51	0xbed0077e	-0.40630716
52	0x3e8c5da2	0.27415186
53	0xbec025f5	-0.3752896
54	0xbddedd48	-0.1088205
55	0x3dcc5ade	0.09978269
56	0x3c34a0ba	0.011024648
57	0x3c08aee9	0.008342483
58	0xbe8e9755	-0.27849832
59	0xbc9f0cbe	-0.019415256
60	0xbe863564	-0.2621261
61	0x3d43eebc	0.047835097
62	0xbe0bd2ea	-0.13654676
63	0xbbedd0a0	-0.007257536
64	0xbdd43bad	-0.10362945
65	0xbe24a826	-0.16079769
66	0xbe2855d7	-0.16438995
67	0xbe3bc980	-0.18338585
68	0x3cb29040	0.0217973
69	0xbe10bc46	-0.1413432
70	0xbdb80b78	-0.089865625
71	0x3cc76508	0.024340168
72	0x3cf61aca	0.03004207
73	0xbd8a52b3	-0.06754055
74	0x3d834b23	0.064108156
75	0x3ed73dae	0.42039245
76	0x3b1d64a0	0.0024016276
77	0xbe547514	-0.20747787
78	0xbe1009e4	-0.14066273
79	0x3d312ab2	0.043253608
80	0xbeb74f15	-0.35802522
81	0x3d2af16f	0.041734155
82	0xbf24c5b2	-0.6436416
83	0x3e8f3d96	0.27976674
84	0xbdb9625b	-0.09051963
85	0x3d2847ee	0.041084222
86	0x3f03d182	0.5149156
87	0x3ddb3ae6	0.10704593
88	0x3ebf2bd4	0.37338126
89	0xbe0987eb	-0.13430755
90	0xbe1585e9	-0.14601864
91	0x3ddd3cfe	0.10802649
92	0x3d9a24fe	0.07526587
93	0x3db3a17e	0.087710366
94	0xbd9bda80	-0.07610035
95	0x3e89b8b9	0.26898745
96	0x3ea1261d	0.3147439
97	0x3d2c49fc	0.042062744
98	0x3f1f32db	0.62186974
99	0xbe6e5320	-0.23273897
100	0xbd07e70c	-0.033179328
101	0x3effdf1a	0.499749
102	0xbee6dccb	-0.45090327
103	0x3f4f8c26	0.81073225
104	0x3ea2ce80	0.31798172
105	0x3f02f395	0.51152927
106	0x3ee158fe	0.44013208
107	0x3d484298	0.048891634
108	0x3e9d18cc	0.3068298
109	0xbc62afd1	-0.013835863
110	0x3f1da792	0.61583817
111	0xbe3ce21b	-0.18445627
112	0xbead9d7a	-0.33909208
113	0xbcd42400	-0.025896072
114	0xbe0a239d	-0.13490148
115	0xbf2b6cab	-0.6696269
116	0x3f0fd4c9	0.5618406
117	0xbe708d66	-0.23491439
118	0x3ec2efc1	0.38073543
119	0x3db20576	0.08692448
120	0xbddd69cd	-0.108111955
121	0xbdbc56df	-0.09196257
122	0x3df56212	0.11981596
123	0xbe2218df	-0.158298
124	0xbe27070d	-0.16311283
125	0xbd177b62	-0.0369829
126	0x3bf04400	0.007332325
127	0x3def476b	0.11683544
128	0x3db16ac8	0.08662945
129	0x3e272053	0.16320924
130	0x3d0246be	0.031805746
131	0x3f3d47e4	0.7393782
132	0xbe5506ce	-0.20803377
133	0xbe550a88	-0.20804799
134	0x3dc29a2f	0.095020644
135	0x3e51107b	0.20416443
136	0x3e313f73	0.1730936
137	0x3e55aa93	0.2086585
138	0xbe851831	-0.2599502
139	0x3eef6dd9	0.46763495
140	0xbfa91c12	-1.3211691
141	0xbd29585d	-0.041344035
142	0xbdb2d75a	-0.08732481
143	0xbbfd077b	-0.007721839
144	0x3e84c883	0.25934228
145	0x3e53285a	0.20620862
146	0x3d7f65e7	0.06235304
147	0x3ec69dcb	0.3879226
148	0x3d8f0376	0.06983082
149	0x3dc83336	0.09775393
150	0x3d3606cc	0.044440076
151	0x3d6d2694	0.05789812
152	0xbdeb6f5a	-0.11495848
153	0x3e46ef88	0.19427311
154	0xbf04ffee	-0.5195302
155	0xbdc36486	-0.09540658
156	0xbf225028	-0.6340356
157	0x3ea9e2e9	0.3318093
158	0x3da36b1e	0.07979415
159	0xbe7f92d6	-0.24958357
160	0x3eddafed	0.43298283
161	0x3e9a5641	0.30143932
162	0xbe2be987	-0.16788302
163	0x3d82b7d2	0.06382717
164	0xbcea51bb	-0.028603425
165	0x3d5b3444	0.05351664
166	0x3f3d285b	0.738897
167	0xbeb033bc	-0.3441447
168	0x3d613486	0.05498173
169	0xbd43b268	-0.047777563
170	0x3d9ec999	0.077532955
171	0xbdc0cf42	-0.09414531
172	0x3db13f7f	0.08654689
173	0x3f297eb0	0.66208935
174	0x3e8118c9	0.25214222
175	0xbe1492f4	-0.14509183
176	0x3f3e5987	0.7435536
177	0xbdfff568	-0.124979794
178	0xbc33cf20	-0.010974675
179	0x3d714d4c	0.058911607
180	0x3dfdab46	0.123861834
181	0x3da5ac76	0.08089535
182	0xbd8efcc4	-0.06981805
183	0xbeb90e53	-0.3614374
184	0x3d59fa80	0.05321741
185	0x3ef1efe3	0.47253332
186	0x3d624df8	0.055250138
187	0x3d860748	0.065443575
188	0x3f8b15ee	1.0866067
189	0x3f4675e2	0.77523625
190	0xbe3ef47c	-0.18647951
191	0x3e77ef78	0.24212444
192	0xbd9ce576	-0.07660954
193	0xbd61967f	-0.055075165
194	0xbc3bcf30	-0.011462972
195	0xbec81684	-0.39079678
196	0xbedb1d46	-0.4279577
197	0x3f2cb675	0.6746591
198	0x3d8ad535	0.06778947
199	0x3e4becbb	0.19914524
200	0xbd00bb98	-0.031428903
201	0xbe0349c3	-0.12821107
202	0x3d5745b2	0.0525567
203	0x3bd12fef	0.006383888
204	0xbebc1e37	-0.36741802
205	0x3f1b8bdd	0.6076029
206	0xbe254541	-0.161397
207	0x3da42146	0.08014159
208	0xbdaaa6a9	-0.08332569
209	0xbde6e0cd	-0.11273346
210	0x3e317371	0.17329194
211	0x3dd8b9bd	0.10582302
212	0x3f0f8a2f	0.56070226
213	0x3dba5356	0.09097926
214	0xbec5e24f	-0.38649222
215	0x3ed05ce1	0.4069586
216	0x3de432ea	0.111425236
217	0x3b88182f	0.0041532735
218	0x3f240605	0.64071685
219	0x3eb749cc	0.3579849
220	0xbf114342	-0.5674325
221	0xbea29c87	-0.31760046
222	0xbc98533a	-0.018594373
223	0xbc80c678	-0.015719637
224	0x3f34ec6f	0.7067327
225	0xbe062c96	-0.13102946
226	0x3e41d3cd	0.18928452
227	0x3dbac2a9	0.0911916
228	0x3e92d3be	0.2867717
229	0xbd9084f7	-0.07056611
230	0x3e63fd46	0.22264585
231	0xbee0c73c	-0.43902004
232	0x3cbb9610	0.022898704
233	0xbea16509	-0.31522396
234	0x3dafc3c9	0.08582265
235	0xbdd3cc2f	-0.10341679
236	0x3e00eaf3	0.12589626
237	0x3d120ea8	0.03565851
238	0xbe083412	-0.13301113
239	0x3e286f7d	0.1644878
240	0xbed599cc	-0.417189
241	0xbedd1cb9	-0.43185976
242	0x3be3fb60	0.0069574565
243	0xbef620c9	-0.48071888
244	0xbeab63e6	-0.33474654
245	0x3e28e46f	0.1649339
246	0x3ecf3cf7	0.404762
247	0x3f9a8990	1.2073231
248	0xbe4177d3	-0.18893366
249	0xbf1eed6f	-0.62081045
250	0xbecbc014	-0.3979498
251	0x3e62f82a	0.2216498
252	0x3dae1426	0.08499937
253	0x3e2918b2	0.16513327
254	0xbe7ea77d	-0.24868579
255	0x3d99c6d5	0.07508627

onnx::LSTM_181 f4 [1, 128, 32]
0	0x3e6ea67a	0.23305693
1	0xbe5a4d31	-0.21318509
2	0x3e9ad7f2	0.30242878
3	0x3d6197a9	0.055076275
4	0xbe7e4c7e	-0.24833867
5	0x3db02e7b	0.086026154
6	0x3ef87af6	0.48531312
7	0x3e12daa7	0.14341222
8	0xbe0ccee4	-0.13750798
9	0xbdbd1096	-0.09231679
10	0x3f1e9398	0.6194396
11	0xbee40fe0	-0.44543362
12	0xbb4a9008	-0.0030908603
13	0xbe42d8dd	-0.1902804
14	0xbec5e414	-0.38650572
15	0x3e0650d0	0.13116765
16	0xbe22196f	-0.15830015
17	0xbcbc0df8	-0.02295588
18	0xbe79f4f6	-0.24409851
19	0x3e24973b	0.16073315
20	0x3ddcbe61	0.107784994
21	0xbea60fa0	-0.32433796
22	0x3ebc81b1	0.36817697
23	0x3dc2dc14	0.09514633
24	0xbd4d5aa2	-0.050135262
25	0x3d6cc3e8	0.05780402
26	0x3e0a2bb7	0.13493238
27	0xbe8c19c3	-0.27363405
28	0x3eca48ee	0.39508766
29	0x3e98b567	0.298259
30	0x3dd8aada	0.10579462
31	0x3e0700c4	0.13183886
32	0xbe099708	-0.1343652
33	0x3eac1b64	0.33614647
34	0x3e8bf9da	0.2733906
35	0xbde9075c	-0.11378357
36	0xbdc3fa64	-0.095692426
37	0x3e9ef83e	0.3104877
38	0x3e661d34	0.22472078
39	0xbdff01d1	-0.12451518
40	0xbe385b13	-0.18003492
41	0x3dffcf04	0.12490657
42	0x3dd1e639	0.102489896
43	0xbe3cfe17	-0.18456303
44	0xbd990528	-0.074716866
45	0xbe957f5f	-0.2919874
46	0x3e7bc5dc	0.24587196
47	0xbe044836	-0.12918171
48	0x3f0529a4	0.52016664
49	0xbea36f86	-0.31921023
50	0x3e70687c	0.23477358
51	0x3e704abf	0.23466013
52	0x3db98432	0.090584174
53	0xbd9d43b8	-0.07678932
54	0x3ee1a286	0.44069308
55	0xbec8f41b	-0.39248738
56	0xbee00e33	-0.43760833
57	0xbe80f6ad	-0.251882
58	0x3e9c1c9f	0.30490586
59	0xbe2b916a	-0.1675469
60	0xbeb58f63	-0.35460958
61	0x3d2c79f6	0.0421085
62	0xbf095482	-0.53644574
63	0x3d1f7cf5	0.038937528
64	0xbd03c6ee	-0.032172136
65	0xbe0245b5	-0.12721904
66	0x3d248f75	0.040175874
67	0xbe544c58	-0.20732248
68	0xbd7fff45	-0.062499303
69	0x3e8c066e	0.27348655
70	0x3e05fe23	0.13085227
71	0xbf2445e4	-0.64169145
72	0x3d4ab82d	0.04949205
73	0xbe9898e0	-0.29804134
74	0x3ebe7828	0.37201047
75	0x3d0fb8db	0.0350884
76	0xbede9ef7	-0.43480656
77	0xbdc72d6c	-0.097254604
78	0x3da369f2	0.07979192
79	0xbc6c9c14	-0.014441509
80	0xbe484451	-0.1955731
81	0xbeddbff4	-0.4331051
82	0xbe781ff9	-0.24230947
83	0xbde959c9	-0.11394078
84	0x3d5be77f	0.05368757
85	0x3e420a4f	0.18949245
86	0xbd523b79	-0.05132625
87	0x3eb5d92b	0.3551725
88	0xbeea6347	-0.45778868
89	0xbee0f56f	-0.4393725
90	0x3e893945	0.26801506
91	0x3e894403	0.268097
92	0x3ead8dca	0.3389724
93	0x3f2c3497	0.67267746
94	0xbeb74f0e	-0.358025
95	0xbe5b44ad	-0.21412916
96	0xbdb7cd7e	-0.089747414
97	0xbe0405e6	-0.12892875
98	0xbea7d747	-0.3278143
99	0xbed66378	-0.41872764
100	0x3e5054d0	0.20344853
101	0xbe60ef30	-0.21966243
102	0x3f19eb9c	0.60125136
103	0x3e577403	0.21040349
104	0x3e163159	0.14667262
105	0xbc9e719f	-0.019341288
106	0xbe796cff	-0.24357985
107	0xbe7bd3df	-0.24592541
108	0x3df08da1	0.117457636
109	0x3d6d7105	0.057969112
110	0x3eae9637	0.3409898
111	0xbc8ffbf0	-0.017576188
112	0xbe2c22ff	-0.16810225
113	0xbe8bbdc0	-0.27293205
114	0xbe312b63	-0.17301707
115	0xbdea5a84	-0.11443046
116	0xbe4c5c12	-0.19956997
117	0xbed0f394	-0.40810835
118	0xbe94aca1	-0.29037955
119	0x3f01778a	0.5057303
120	0xbece8fa5	-0.40343967
121	0x3e522bb3	0.20524482
122	0xbe324568	-0.17409289
123	0xbdd71189	-0.105013914
124	0xbf2446da	-0.6417061
125	0xbeb1ea8f	-0.34749267
126	0xbbbf445d	-0.005837007
127	0xbe0e756e	-0.13911983
128	0xbe972f38	-0.29528213
129	0x3ee89150	0.45423365
130	0x3e12bdfe	0.14330289
131	0xbe33ab10	-0.17545724
132	0x3e22bae4	0.15891606
133	0xbed09bcc	-0.40743864
134	0x3e366e40	0.17815495
135	0x3ec85cf1	0.3913341
136	0xbe7b9180	-0.24567223
137	0xbc7f4b00	-0.015581846
138	0x3e9ff9ce	0.31245273
139	0xbe8ec3e3	-0.27883825
140	0x3d380562	0.04492701
141	0xbeda10c3	-0.42590913
142	0xbd0212fe	-0.031756394
143	0xbea5f55c	-0.32413757
144	0x3f3fdf1b	0.74949807
145	0xbe0d5b0e	-0.13804266
146	0x3e28fe12	0.1650317
147	0x3e8b01df	0.27149865
148	0x3ea674ee	0.32511085
149	0x3e257264	0.16156918
150	0x3eabc55d	0.33549014
151	0xbc1fdb7c	-0.009756919
152	0xbeb45ef3	-0.3522869
153	0xbe95c529	-0.29251984
154	0x3e30bf68	0.17260516
155	0xbd0b0266	-0.033937834
156	0xbe856f15	-0.2606131
157	0x3e246bbe	0.16056725
158	0xbeb59e3b	-0.35472283
159	0x3ed121fb	0.40846238
160	0xbdf062ed	-0.117376186
161	0x3d227127	0.03965869
162	0x3ed060a9	0.40698746
163	0xbe66fa1c	-0.22556347
164	0xbe8c2984	-0.27375424
165	0xbed98b34	-0.42489016
166	0x3e7047da	0.23464909
167	0x3c650ae9	0.013979652
168	0x3ae634ad	0.0017563306
169	0xbef9273d	-0.4866275
170	0x3e614bef	0.22001623
171	0xbf353b50	-0.7079363
172	0xbd9e25d8	-0.07722062
173	0xbf17cdfa	-0.5929867
174	0x3e177b85	0.14793213
175	0x3dd4c962	0.10389973
176	0x3e74f333	0.23920898
177	0xbcad0703	-0.021121508
178	0xbe3d81d5	-0.18506558
179	0x3e75cc7b	0.24003784
180	0xbeb98ddb	-0.3624104
181	0x3e02fd26	0.12791881
182	0x3ebc85be	0.36820787
183	0x3dc66e02	0.09688951
184	0xbecc2192	-0.39869362
185	0x3c17d847	0.009267873
186	0xbe7aaf33	-0.24480896
187	0xbd92ac12	-0.07161726
188	0xbf0392f3	-0.513961
189	0x3f7947e7	0.9737534
190	0xbf077852	-0.5291797
191	0xbd18d02c	-0.037307903
192	0x3eebf67a	0.46086484
193	0x3e478244	0.19483286
194	0xbe8503ba	-0.25979406
195	0x3e7c3bed	0.24632235
196	0x3c12a93c	0.008951481
197	0xbe2b5e8e	-0.16735289
198	0x3db0cc0e	0.0863267
199	0x3f26bf81	0.6513596
200	0x3e760bab	0.24027888
201	0xbd6d9ab7	-0.058008876
202	0xbe919136	-0.284311
203	0xbee988cb	-0.45612177
204	0x3e6cd4ea	0.23128095
205	0xbc66be64	-0.014083479
206	0xbe4b167d	-0.19832797
207	0xbebf1d55	-0.37327066
208	0x3e67d4ba	0.22639742
209	0x3e341895	0.17587502
210	0x3eafd308	0.34340692
211	0xbebd8a23	-0.37019452
212	0x3d46e81a	0.048561193
213	0xbcb88881	-0.022526028
214	0x3c8afa75	0.01696513
215	0x3dd7d2eb	0.10538276
216	0xbe85f383	-0.26162347
217	0x3e833450	0.2562585
218	0xbe4b5160	-0.19855261
219	0xbedbfea7	-0.42967722
220	0xbd9c533b	-0.076330625
221	0x3d02da94	0.031946734
222	0xbd997884	-0.0749369
223	0x3d3eb331	0.04655761
224	0xbd878788	-0.066176474
225	0xbed5dbdf	-0.4176931
226	0x3d333f69	0.043761645
227	0xbd1e558b	-0.0386558
228	0xbe3cc8ea	-0.18436018
229	0x3dd7a83a	0.105301335
230	0xbe0fef26	-0.14056072
231	0xbe5054e9	-0.2034489
232	0xbe865dfa	-0.26243573
233	0xbf1de3ff	-0.6167602
234	0x3e01f941	0.12692739
235	0x3e75046e	0.23927471
236	0xbf03c3de	-0.51470745
237	0xbdd00f4d	-0.101591684
238	0x3f119ae8	0.56876993
239	0x3f4e4c6a	0.8058535
240	0xbf2ce9d5	-0.675443
241	0xbe9a87b3	-0.30181655
242	0xbee1828d	-0.44044915
243	0x3f128b3f	0.5724372
244	0xbef6e1a9	-0.4821904
245	0x3de5cba8	0.11220485
246	0xbe13e9af	-0.14444612
247	0x3ec079ed	0.37593022
248	0x3d7b202f	0.06130999
249	0xbdca9c2a	-0.09893067
250	0xbe8066a5	-0.25078312
251	0x3edde1ef	0.43336436
252	0xbe8a89ed	-0.27058354
253	0x3e126ab5	0.14298518
254	0xbcc2a1b4	-0.023758747
255	0x3d0a19cd	0.03371601

onnx::LSTM_182 f4 [1, 256]
0	0xbda79d65	-0.081843175
1	0xbd7ecff0	-0.062210023
2	0xbe430d1c	-0.1904797
3	0x3e38eaef	0.1805837
4	0xbd07404f	-0.033020314
5	0x3e256c17	0.16154514
6	0xbd6458f7	-0.055748906
7	0x3eadd18d	0.33948937
8	0xbe87035c	-0.2636975
9	0xbd3ab960	-0.045586944
10	0xbe030cc0	-0.12797832
11	0xbe69047a	-0.22755614
12	0x3ed4dc10	0.41574144
13	0xbe357c83	-0.17723279
14	0x3e951153	0.2911478
15	0x3c59f74f	0.013303592
16	0x3ca0ef09	0.01964523
17	0xbe6b6717	-0.22988544
18	0xbed3205c	-0.41235626
19	0xbe1b736a	-0.15180746
20	0xbe21be55	-0.15795262
21	0xbe96c1f2	-0.29444844
22	0x3d1b6fb7	0.037948336
23	0x3d2b8213	0.041872095
24	0x3e4e3549	0.20137514
25	0x3cef0988	0.02917935
26	0xbd131a5b	-0.035913806
27	0xbdc5f58d	-0.09665976
28	0x3e8094fe	0.25113672
29	0x3d6039d3	0.054742645
30	0xbe271de1	-0.16319992
31	0xbe20c746	-0.15701017
32	0xbe7d8a61	-0.24759819
33	0x3d50b8eb	0.0509576
34	0xbd016439	-0.03158972
35	0x3e33607b	0.17517273
36	0xbcfe6a98	-0.031056687
37	0x3e1d38ab	0.15353648
38	0xbe1e2d68	-0.15447009
39	0x3e9e8a5f	0.30964944
40	0xbe2ed2c9	-0.17072596
41	0x3ba4d0a1	0.0050297533
42	0x3d74d09f	0.05976927
43	0x3e36ef72	0.17864779
44	0x3db5e07c	0.088807076
45	0xbe9afad6	-0.30269498
46	0x3e3830f3	0.17987423
47	0x3ddda8f5	0.108232416
48	0xbe2b39ef	-0.16721319
49	0x3d4d21e0	0.050081134
50	0xbe61ead1	-0.22062232
51	0xbec75ed3	-0.38939533
52	0x3cd20cec	0.025640927
53	0xbdaf9c53	-0.08574738
54	0xbc73d27e	-0.014881728
55	0x3deb6729	0.114942856
56	0x3e86563f	0.26237676
57	0x3ba4953f	0.0050226743
58	0x3d5c68e1	0.053810958
59	0xbe318804	-0.17337042
60	0x3e20eeee	0.15716144
61	0x3e1e2120	0.15442324
62	0x3da4015e	0.08008073
63	0xbe4045aa	-0.18776575
64	0xbe42d9ee	-0.19028446
65	0xbe0cd813	-0.13754301
66	0xbd220d61	-0.03956354
67	0x3c7aea9c	0.015314724
68	0xbd21c01d	-0.039489854
69	0x3f42c4ca	0.76081526
70	0xbe73f30e	-0.23823187
71	0xbd166d81	-0.036725525
72	0xbe7f2eba	-0.24920169
73	0x3e7872b0	0.242625
74	0xbe0d8eb1	-0.13823964
75	0x3d84c165	0.064821996
76	0x3e6e788d	0.23288174
77	0x3e4e63a1	0.20155193
78	0xbeb6c15c	-0.35694396
79	0xbd384e6b	-0.04499666
80	0x3e5783dd	0.21046396
81	0x3e32d6c1	0.17464735
82	0xbe9b8d27	-0.30381128
83	0x3da39d13	0.07988944
84	0x3c827b34	0.015927888
85	0xbe664e63	-0.2249084
86	0x3ef3c7c1	0.47613338
87	0xbd4b5fd4	-0.049651936
88	0xbeb1b0e5	-0.34705272
89	0xbeb3ca08	-0.35115075
90	0x3e88eeea	0.26744777
91	0xbe4fadac	-0.20281094
92	0xbc92b6f7	-0.01790951
93	0xbcb80b30	-0.022466272
94	0x3e1c0488	0.15236104
95	0x3cc10b88	0.023565069
96	0x3e28bcf8	0.16478336
97	0x3dc5fe32	0.096676245
98	0xbea71b1f	-0.3263788
99	0x3d926668	0.07148439
100	0x3dac876d	0.08424268
101	0xbc152adb	-0.009104456
102	0xbd63f658	-0.055654854
103	0x3e210ded	0.15727969
104	0xbcf8af77	-0.030357106
105	0x3d5b95c3	0.05360962
106	0xbd50641b	-0.050876718
107	0x3e370c98	0.17875898
108	0x3e26661d	0.1624989
109	0x39d6ff82	0.0004100763
110	0x3d79689a	0.06089077
111	0x3e53edf9	0.20696248
112	0xbe389b68	-0.18028033
113	0xbe246b02	-0.16056445
114	0xbda7b287	-0.08188348
115	0xbe5708fa	-0.20999518
116	0xbca8a443	-0.020586139
117	0x3c29c930	0.010362908
118	0xbcfaa013	-0.030593907
119	0x3d828ea7	0.06374865
120	0x3d285289	0.041094337
121	0xbe0a0b0c	-0.13480777
122	0xbcdf08f8	-0.027225956
123	0x3e28b4e5	0.16475256
124	0x3dc9cec9	0.09853894
125	0xbe0a37a6	-0.1349779
126	0xbb4d7ac4	-0.0031353692
127	0xbe14e117	-0.1453899
128	0xbe6a5264	-0.22882992
129	0x3ca6364a	0.020289559
130	0xbea99844	-0.33123982
131	0x3e6e2d2e	0.23259422
132	0x3c1800be	0.009277521
133	0x3e6a225d	0.22864671
134	0xbc4b3d54	-0.0124047585
135	0x3e99fba9	0.30074814
136	0xbec40767	-0.38286898
137	0x3e105c69	0.14097752
138	0xbc3ddc09	-0.011588105
139	0x3de00360	0.10938144
140	0x3e97fd5d	0.29685488
141	0xbed0f38e	-0.40810817
142	0x3e223f5d	0.15844484
143	0x3d9ccd9f	0.076564066
144	0x3e7299b0	0.2369144
145	0x3d7c5e0c	0.061613128
146	0xbeb2cd7c	-0.34922397
147	0xbe3a7b1e	-0.18211028
148	0xbdf19492	-0.11795916
149	0xbe8b4ba9	-0.27206162
150	0x3e91db49	0.28487614
151	0x3dabccc2	0.08388664
152	0x3c4b6d1e	0.012416152
153	0x3dc84a2d	0.09779773
154	0xbe5f93b8	-0.21833694
155	0x3d1255b7	0.035726275
156	0x3e836d2c	0.2566923
157	0xbe1fa874	-0.15591604
158	0x3d9bc025	0.07605008
159	0xbe82c6f0	-0.25542402
160	0x3d2a15ec	0.041524813
161	0xbe8fa6e2	-0.2805701
162	0xbe651907	-0.22372828
163	0x3de80f3f	0.11331033
164	0x3b9b96c1	0.004748196
165	0x3dd088ee	0.10182367
166	0xbd01d586	-0.031697772
167	0x3e20a68a	0.1568853
168	0xbe4241e3	-0.18970446
169	0x3e96ab5e	0.29427618
170	0xbe702bf0	-0.23454261
171	0xbcbf3ae0	-0.023343503
172	0x3d908d1a	0.07058163
173	0xbea922c5	-0.3303434
174	0x3e86b48f	0.2630963
175	0x3cd2df09	0.025741117
176	0x3e08c955	0.13358052
177	0x3cfdc1ae	0.030976143
178	0xbe70f63d	-0.23531432
179	0xbea5f946	-0.32416743
180	0x3b6abf45	0.0035819572
181	0xbebefd35	-0.37302557
182	0x3d1c2c0a	0.038127936
183	0x3e5a9ef8	0.21349704
184	0x3d67c393	0.056583
185	0x3b1c17eb	0.0023817967
186	0x3e541859	0.20712413
187	0xbdef3164	-0.116793424
188	0x3dc0a88e	0.09407149
189	0x3d075729	0.033042107
190	0xbe30ae97	-0.172541
191	0xbcc47eb6	-0.023986202
192	0xbe3302d8	-0.17481554
193	0xbe48fb15	-0.1962703
194	0xbe131aef	-0.14365743
195	0x3c990fa6	0.01868422
196	0x3ce080a3	0.027405089
197	0x3eedc980	0.46442795
198	0xbe9341d9	-0.28761175
199	0x3dfb80de	0.12280439
200	0xbeed37fb	-0.46331772
201	0x3e911b7a	0.28341275
202	0xbe7b9c4b	-0.2457134
203	0x3d27e99f	0.040994283
204	0x3e67946d	0.22615214
205	0x3dfb29c1	0.12263823
206	0xbdb05a49	-0.086109705
207	0xbdfbcb45	-0.1229463
208	0x3dc0efb3	0.09420719
209	0x3e2ceeb0	0.16887927
210	0xbef2ce4c	-0.47423017
211	0x3e0d08ea	0.13772932
212	0xbd716d94	-0.058942392
213	0xbeaa518f	-0.3326535
214	0x3e4e5c9c	0.20152515
215	0xbec3ce59	-0.38243368
216	0xbe6f44fa	-0.23366156
217	0xbdb2ccc1	-0.0873046
218	0x3ea6e47a	0.3259619
219	0xbd82e253	-0.06390824
220	0xbe200490	-0.1562674
221	0xbdabcbf6	-0.08388512
222	0x3d4158d5	0.047203857
223	0x3e72c86b	0.23709266
224	0xbd7d337d	-0.06181668
225	0xbe048d37	-0.12944494
226	0xbe70ca2f	-0.23514627
227	0x3be507f5	0.006989474
228	0x3dc72049	0.09722955
229	0x3e12f1db	0.14350073
230	0xbd26b7f9	-0.040702794
231	0x3e037a8d	0.12839718
232	0x3d57a181	0.052644257
233	0x3e83cbf9	0.25741556
234	0xbdb1a777	-0.086745195
235	0xbc9d8e8d	-0.019233013
236	0x3e7b4370	0.24537444
237	0x3c93c9b2	0.018040512
238	0xbe11ff4f	-0.14257549
239	0xbde715f6	-0.112834856
240	0xbdc4eac7	-0.09615093
241	0x3cb185df	0.02167028
242	0x3c849d98	0.016188428
243	0xbd5bec47	-0.05369213
244	0x3d49572c	0.0491554
245	0x3d278817	0.04090127
246	0x3e0456dd	0.1292376
247	0xbe0a3530	-0.13496852
248	0x3e0c5373	0.13703708
249	0xbdc17e56	-0.09447925
250	0xbe22619d	-0.15857549
251	0xbd4b65d5	-0.04965766
252	0xbbcf6a75	-0.0063298293
253	0xbcdf197e	-0.027233835
254	0x3cd53514	0.026026286
255	0xbe049f72	-0.12951449

onnx::LSTM_202 f4 [1, 128, 32]
0	0xbe401bee	-0.18760654
1	0x3e3dc2b2	0.18531302
2	0x3f6e4282	0.9307023
3	0xbe3186b3	-0.1733654
4	0x3e6c5c98	0.23082197
5	0xbdbc896b	-0.09205898
6	0xbf06af7c	-0.5261152
7	0xbd173e38	-0.03692457
8	0x3d36efcc	0.044662282
9	0xbf2849b2	-0.6573745
10	0xbf18923d	-0.5959814
11	0x3eba6d94	0.36411726
12	0xbf650aff	-0.89469904
13	0xbe574e51	-0.21025969
14	0x3de631f6	0.11239998
15	0xbe9e4a1a	-0.3091591
16	0x3e860aa1	0.26179984
17	0x3d623bf9	0.055232976
18	0x3e090742	0.13381675
19	0x3e4e558a	0.20149818
20	0xbe709f3b	-0.23498242
21	0x3e614937	0.22000585
22	0xbf0926e5	-0.53574973
23	0xbd2a6c3f	-0.041607138
24	0x3e6bc308	0.23023617
25	0xbcdcb8fa	-0.026943672
26	0x3e938e34	0.2881943
27	0x3d78f4c3	0.060780298
28	0xbeb017f9	-0.3439329
29	0x3f31de5e	0.6947993
30	0xbe4aea03	-0.19815831
31	0x3cc9df87	0.024642719
32	0xbe1f043b	-0.15528958
33	0x3e023ad9	0.12717761
34	0x3e6ace5a	0.2293028
35	0xbb603d8b	-0.003421637
36	0x3ddd80b1	0.108155616
37	0x3ee62737	0.44951794
38	0x3c815b8d	0.015790725
39	0xbdb337bc	-0.08750865
40	0xbe30656c	-0.1722619
41	0xbec1fcb5	-0.37888113
42	0x3d7e5804	0.062095657
43	0xbcd4d447	-0.025980128
44	0xbdae454d	-0.08509312
45	0xbe175aa4	-0.1478067
46	0xbebe6368	-0.37185216
47	0xbe488629	-0.19582428
48	0x3d358c36	0.04432317
49	0xbe152e61	-0.14568473
50	0x3d38c13c	0.045106158
51	0x3e018be7	0.12651025
52	0xbdaca517	-0.08429926
53	0xbe31fee5	-0.17382391
54	0xbea647af	-0.32476565
55	0xbd6c3804	-0.05767061
56	0x3d84f436	0.06491892
57	0xbe715abc	-0.23569769
58	0x3eb3894f	0.35065696
59	0x3cfadd42	0.030623082
60	0x3d1bf91c	0.038079366
61	0x3f194632	0.59872735
62	0xbedfe272	-0.43727452
63	0xbddc3f03	-0.10754206
64	0x3f39b5c1	0.7254296
65	0x3e5810d7	0.21100174
66	0xbe2b1f57	-0.16711174
67	0xbe042c82	-0.12907603
68	0x3eedc304	0.46437848
69	0x3da0ed49	0.078577586
70	0xbf29f31d	-0.66386586
71	0x3ec876cb	0.39153132
72	0x3f2a272c	0.6646602
73	0x3eb4b5df	0.35295007
74	0xbe8e84a4	-0.27835572
75	0x3d08f876	0.033440076
76	0xbd6556e9	-0.055991087
77	0x3e2425fb	0.16030113
78	0xbe33323b	-0.1749963
79	0xbf2c951c	-0.6741502
80	0x3e1dc8f9	0.15408696
81	0x3e962ad8	0.29329562
82	0x3e9654a7	0.2936146
83	0xbd84685f	-0.0646522
84	0x3eb53a39	0.35395983
85	0x3e30a290	0.17249513
86	0xbe9dd674	-0.30827677
87	0x3c8c9454	0.017160572
88	0x3ea85ce6	0.32883376
89	0x3f67d097	0.9055266
90	0x3ee451a4	0.44593537
91	0xbf2f722b	-0.6853358
92	0xbd2ec625	-0.042669434
93	0x3c95cd09	0.018286245
94	0x3e0475a8	0.12935507
95	0x3e7a0c3d	0.24418731
96	0x3e1f2528	0.15541518
97	0xbd024c0e	-0.031810813
98	0xbe614d3e	-0.22002122
99	0xbe7f73c5	-0.24946506
100	0xbdf36947	-0.118853144
101	0x3ec103af	0.37698123
102	0x3ebc0286	0.36720675
103	0xba0b89be	-0.00053229544
104	0x3e3d130c	0.18464297
105	0xbdd0bd16	-0.10192315
106	0xbb9b9568	-0.004748035
107	0x3e81c3db	0.25344738
108	0x3eb6030f	0.3554921
109	0xbdc4b2d8	-0.09604424
110	0x3e0aa6c1	0.13540174
111	0xbc2cd14e	-0.010547949
112	0xbd85dfca	-0.06536825
113	0xbebffdc7	-0.37498304
114	0xbd8a3336	-0.06748049
115	0x3d7967e1	0.060890082
116	0xbe34a704	-0.17641836
117	0xbed81cf6	-0.42209595
118	0xbed64f0d	-0.41857186
119	0x3e538305	0.20655449
120	0x3de368fe	0.1110401
121	0x3ed29c9f	0.41135117
122	0xbdd10a29	-0.10207016
123	0x3c769944	0.01505119
124	0xbcdd1a9e	-0.026990231
125	0x3db4d56f	0.08829772
126	0xbebcbb4e	-0.36861652
127	0xbf0285e4	-0.5098555
128	0xba899f8e	-0.0010499822
129	0x3ebf8f56	0.37414044
130	0xbe35283f	-0.17691134
131	0x3e22a277	0.15882288
132	0x3eef1982	0.46699148
133	0xbdb10e98	-0.08645362
134	0xbedfce17	-0.43711922
135	0x3d7b1c28	0.06130615
136	0x3f138722	0.5762807
137	0x3e4d7f41	0.20068075
138	0xbe9b558c	-0.30338705
139	0x3e335f42	0.17516807
140	0x3d5dbbf3	0.05413432
141	0xbe77b2d8	-0.24189317
142	0xbed0613b	-0.4069918
143	0xbe2ed671	-0.1707399
144	0x3e115f9f	0.14196633
145	0x3e172b7f	0.14762686
146	0xbe77f29f	-0.24213646
147	0x3c8e4ccb	0.017370602
148	0x3e57a767	0.21059953
149	0x3ebb135e	0.36538213
150	0x3cafbd59	0.021452593
151	0x3d19480a	0.037422217
152	0x3eb72c8d	0.35776177
153	0x3ca6f9b5	0.020382741
154	0x3f52be08	0.82321215
155	0xbe00bb19	-0.12571372
156	0x3dd31441	0.103065975
157	0x3f245ce7	0.6420426
158	0xbeadcbbf	-0.33944508
159	0xbd18faeb	-0.03734867
160	0x3eb71233	0.35756072
161	0x3e475c07	0.194687
162	0xbe036e40	-0.12835026
163	0x3f1a694e	0.6031693
164	0x3ea11118	0.31458354
165	0xbeda5f3f	-0.42650792
166	0xbf434df9	-0.7629085
167	0x3f6e55c0	0.93099594
168	0x3ed70535	0.4199616
169	0x3d115996	0.035485826
170	0xbe9054be	-0.28189653
171	0x3eb46ea4	0.35240662
172	0xbe0ea09b	-0.13928454
173	0x3c9de113	0.019272363
174	0xbef045a7	-0.4692814
175	0xbea07627	-0.31340143
176	0x3e55eed0	0.20891881
177	0x3f6b893e	0.9200629
178	0x3e41c923	0.18924384
179	0xbe3d2eb9	-0.18474855
180	0xbc178d38	-0.009249978
181	0x3e06fe9f	0.13183068
182	0xbecc289c	-0.39874732
183	0x3dde1914	0.10844627
184	0x3f0c10d4	0.5471318
185	0x3f617394	0.88066983
186	0x3e747fd1	0.23876883
187	0xbf27ff57	-0.6562399
188	0xbe148388	-0.145033
189	0x3ddf1a6c	0.108937114
190	0x3ed2c70d	0.4116749
191	0x3ee0f749	0.43938664
192	0xbecc3e5e	-0.39891332
193	0x3d5afa66	0.053461455
194	0x3e88fc42	0.26754957
195	0xbeac62e7	-0.33669207
196	0xbc637596	-0.013883015
197	0x3da829f7	0.08211129
198	0xbec798ea	-0.38983852
199	0x3d32f5b9	0.04369137
200	0x3e1b573d	0.15169998
201	0xbe81e5d1	-0.25370649
202	0xbeda463e	-0.42631716
203	0x3e9c7b53	0.3056284
204	0xbf02326d	-0.50858194
205	0x3d46e271	0.048555795
206	0xbe8084c5	-0.25101295
207	0xbe700675	-0.23439963
208	0x3e9f2176	0.31080216
209	0xbe24793e	-0.16061875
210	0x3e4a5da3	0.19762282
211	0x3d45ed97	0.048322286
212	0x3deedf42	0.11663677
213	0xbe90e6de	-0.28301138
214	0xbe20b08f	-0.15692352
215	0x3c521667	0.012822724
216	0xbe0c9c7d	-0.1373157
217	0xbecaee3a	-0.39634877
218	0x3e668d25	0.2251478
219	0x3e5781e3	0.21045642
220	0x3e94863e	0.2900867
221	0x3ef22a94	0.4729811
222	0xbc289d9e	-0.010291485
223	0xbe9e9993	-0.30976543
224	0x3f0f80ae	0.56055725
225	0x3e98ee1d	0.29869166
226	0xbeea6a5b	-0.45784268
227	0xbbaff41f	-0.0053696777
228	0x3f06cfcf	0.5266084
229	0xbe224599	-0.15846862
230	0xbf035354	-0.51299024
231	0x3ee8dcca	0.4548095
232	0x3f2836a1	0.6570836
233	0x3ed0f438	0.40811324
234	0xbc68d873	-0.014211762
235	0x3d9dfdeb	0.07714447
236	0x3e7e3467	0.24824677
237	0xbd6aac8c	-0.05729346
238	0xbe003039	-0.12518395
239	0xbf561cea	-0.8363787
240	0x3e0102c8	0.12598717
241	0x3dbf179e	0.093306765
242	0x3ed09962	0.40742022
243	0xbe93dbe0	-0.2887869
244	0x3eeae786	0.45879763
245	0x3eec3d78	0.46140647
246	0xbeece528	-0.46268582
247	0xbe56952d	-0.20955344
248	0x3e95f49a	0.2928818
249	0x3f5218fb	0.8206937
250	0x3f16ae84	0.5886004
251	0xbec2da83	-0.38057336
252	0xbe20d5fb	-0.15706627
253	0x3e615ccc	0.22008055
254	0xbcdbab70	-0.026815146
255	0x3d26bfcf	0.040710267

onnx::LSTM_203 f4 [1, 128, 32]
0	0x3e7fe81f	0.24990891
1	0xbe2ee251	-0.1707852
2	0xbe4b8493	-0.19874792
3	0xbedcd203	-0.43128976
4	0x3d89dea2	0.06731917
5	0xbe662f59	-0.22478999
6	0xbe3c08c8	-0.18362725
7	0x3e5d2fe9	0.21600308
8	0x3ef24fc3	0.47326478
9	0xbeb3b1d2	-0.35096604
10	0xbd88d814	-0.06681839
11	0x3ec7fd33	0.39060363
12	0xbdd9e0a4	-0.1063855
13	0x3b583679	0.0032991453
14	0xbe9d8276	-0.30763596
15	0xbe33e906	-0.1756936
16	0xbdfef24c	-0.12448558
17	0x3e40f22c	0.18842381
18	0x3edb7231	0.4286056
19	0x3e72e2e0	0.23719358
20	0xbe8bc10d	-0.27295724
21	0x3e2e4799	0.170195
22	0x3ef0fbfc	0.4706725
23	0xbd34a054	-0.044098213
24	0xbea7a89c	-0.32745826
25	0x3d31fd9e	0.04345476
26	0x3e3d944c	0.18513602
27	0xbe0426a8	-0.12905371
28	0x3ee54474	0.44778788
29	0x3efd2bc5	0.49447456
30	0xbea08a97	-0.31355736
31	0xbe1af17e	-0.15131184
32	0x3eac6749	0.3367255
33	0xbe714f0d	-0.23565312
34	0xbec185f6	-0.37797517
35	0xbe285ed9	-0.16442432
36	0x3e390dbd	0.18071647
37	0x3e0e011c	0.1386761
38	0xbe0fe03c	-0.14050382
39	0x3e995f4d	0.2995552
40	0x3eec4482	0.46146017
41	0xbe700c9d	-0.23442312
42	0x3bd73935	0.006568099
43	0x3dd398da	0.103318885
44	0x3df6fc08	0.1205979
45	0x3e165bd6	0.1468347
46	0xbe93daca	-0.2887786
47	0xbea47c7f	-0.32126233
48	0x3e7b2258	0.2452482
49	0x3e01bce8	0.12669718
50	0x3e9a8de9	0.30186394
51	0x3e66eed5	0.22552045
52	0xbdcd9ff2	-0.10040273
53	0x3e95e9ba	0.29279882
54	0x3ed2223f	0.41041753
55	0x3e9c5231	0.30531457
56	0xbd6a7583	-0.057240974
57	0x3dd064ed	0.101755
58	0x3ec0d02d	0.37658826
59	0xbc4dc8fc	-0.012560125
60	0x3eddcd80	0.43320847
61	0x3e9c6f8d	0.30553856
62	0xbe2bb41a	-0.16767922
63	0x3e4fbd80	0.20287132
64	0x3df73288	0.12070185
65	0xbe401cf5	-0.18761046
66	0x3c5b1c41	0.0133734355
67	0x3ef2c928	0.47419095
68	0x3d90e81c	0.07075521
69	0x3e608e06	0.21929178
70	0xbbf20ff8	-0.0073871575
71	0xbe2d50f8	-0.16925418
72	0xbede08e2	-0.43366152
73	0xbe107473	-0.14106922
74	0x3ed38646	0.4131338
75	0xbd9fed3a	-0.07808919
76	0x3eb29f86	0.34887332
77	0xbf23c9cf	-0.6397981
78	0xbed2c9c2	-0.41169554
79	0x3c687217	0.014187357
80	0x3ea47d21	0.32126716
81	0xbe094dac	-0.13408536
82	0xbec5811b	-0.38575062
83	0xbd4a347f	-0.04936647
84	0x3f0069fc	0.5016172
85	0x3e02b290	0.12763429
86	0xbeef5c61	-0.46750167
87	0xbc0407f0	-0.008058533
88	0x3eb0493f	0.34430882
89	0xbe390c61	-0.18071128
90	0xbf088c13	-0.53338736
91	0xbe93218f	-0.2873654
92	0xbdfa3269	-0.12216646
93	0xbcc53f9b	-0.024078181
94	0xbf166579	-0.58748585
95	0xbea90956	-0.33014935
96	0x3efff86e	0.49994224
97	0x3e5934a6	0.2121149
98	0x3e6f92c4	0.2339583
99	0x3ed7e85e	0.4216947
100	0xbe9def7e	-0.3084678
101	0xbe4d6b69	-0.20060505
102	0x3e2d32cd	0.1691391
103	0xbe6e72bf	-0.2328596
104	0xbe8b135d	-0.2716321
105	0x3e8e5001	0.27795413
106	0x3e582936	0.2110947
107	0xbf1da5c9	-0.61581093
108	0xbebf0638	-0.37309432
109	0x3eb6f342	0.35732466
110	0xbd2b89be	-0.041879408
111	0xbe1e0f4f	-0.15435527
112	0xbe872328	-0.2639401
113	0xbd9eeabf	-0.07759618
114	0xbe405c03	-0.187851
115	0x3ee44ba1	0.4458895
116	0xbdc41678	-0.09574598
117	0x3ea59478	0.32339835
118	0xbe23a645	-0.15981396
119	0xbea6e0a8	-0.32593274
120	0x3e4c5c8e	0.19957182
121	0xbe95df57	-0.29271957
122	0xbe8b05b4	-0.2715279
123	0xbe181082	-0.14850047
124	0x3e315ddd	0.17320962
125	0x3f035f1b	0.51316994
126	0x3d8a87e8	0.06764203
127	0x3de3e059	0.11126775
128	0x3e8ba1db	0.27271923
129	0xbe301a34	-0.17197496
130	0xbeae2df7	-0.34019443
131	0x3eaf5d9e	0.34251112
132	0x3d6f9ca0	0.05849898
133	0xbe6c5cb7	-0.23082243
134	0xbe146749	-0.14492525
135	0x3d93fa80	0.072255135
136	0xb9899a42	-0.00026245607
137	0xbe6ac666	-0.22927245
138	0xbce9c324	-0.028535433
139	0xbe07777f	-0.13229178
140	0x3e7b229f	0.24524926
141	0xbe85a9c1	-0.26106074
142	0xbf144205	-0.5791324
143	0xbe05a7ca	-0.13052288
144	0x3e83485f	0.25641152
145	0x3e83cfc6	0.25744456
146	0xbe2c9ca8	-0.16856635
147	0x3e4f1637	0.20223318
148	0x3e31bce1	0.17357208
149	0x3eee87b2	0.46587902
150	0xbe8c67e7	-0.2742302
151	0xbdcb8b64	-0.09938696
152	0x3e2325a6	0.1593233
153	0x3dcbaeca	0.09945448
154	0xbe300051	-0.1718762
155	0xbe49e06a	-0.19714513
156	0x3e6565d7	0.2240213
157	0x3dce36d8	0.10069054
158	0xbef1d9e7	-0.4723656
159	0xbe50b7db	-0.20382635
160	0x3d37ce29	0.044874344
161	0xbe60e8cf	-0.2196381
162	0xbef4e236	-0.47828835
163	0x3e8c109e	0.27356428
164	0x3d8b4060	0.06799388
165	0x3e45dc99	0.19322433
166	0xbde1abda	-0.11019106
167	0x3ea32d25	0.3187038
168	0xbea2422a	-0.31691104
169	0xbdaede33	-0.08538475
170	0xbd9a2a0d	-0.07527552
171	0x3e972d55	0.29526773
172	0x3eea9103	0.4581376
173	0xbf102bd1	-0.5631686
174	0xbf128863	-0.5723936
175	0x3d84761e	0.064678416
176	0x3f03061e	0.5118121
177	0x3e8a21c5	0.2697889
178	0x3c75f8aa	0.015012899
179	0x3da9b4b6	0.08286421
180	0xbd68100d	-0.056655932
181	0x3d6eb36d	0.058276583
182	0xbd3d49b1	-0.046212856
183	0x3e4d779e	0.20065162
184	0xbdbf4f10	-0.09341252
185	0x3d287f1d	0.04113685
186	0xbe15ec6d	-0.1464097
187	0xbe79d01c	-0.24395794
188	0x3e972aa6	0.29524726
189	0xbc8c2fd6	-0.017112654
190	0xbec37ebc	-0.38182628
191	0xbe6bbbd8	-0.23020875
192	0x3ea5064d	0.3223137
193	0xbd93ab5d	-0.07210419
194	0x3e93013d	0.28711882
195	0x3eb7fc4c	0.35934675
196	0xbf12a179	-0.5727764
197	0xbe181e8b	-0.14855401
198	0xbe498259	-0.1967863
199	0x3db5a09e	0.08868526
200	0xbda5fac4	-0.0810447
201	0x3ba0e1d2	0.0049097324
202	0x3e467b91	0.19383074
203	0xbd6e4a53	-0.05817635
204	0xbd1a9e15	-0.037748415
205	0x3cdae0fa	0.026718605
206	0xbd9d3a5d	-0.076771475
207	0xbec79fb1	-0.38989022
208	0xbeb4e5db	-0.35331616
209	0x3e0e7439	0.13911523
210	0xbd864e60	-0.065579176
211	0x3c87c277	0.01657222
212	0x3c2dbb97	0.010603807
213	0x3eed183c	0.46307552
214	0x3e4a3c51	0.19749571
215	0xbd92d3e2	-0.0716932
216	0x3dc480a4	0.09594849
217	0x3e4e6161	0.20154335
218	0x3d521813	0.05129249
219	0x3d1c16e0	0.038107753
220	0xbda5db75	-0.08098499
221	0x3ef17c48	0.47165132
222	0x3d7adf8e	0.061248355
223	0x3eb95f72	0.36205631
224	0xbd763f2e	-0.060118847
225	0xbe0b5dc4	-0.13609987
226	0xbe22cfaa	-0.1589953
227	0x3f11ae2c	0.5690639
228	0x3d0e5680	0.03475046
229	0x3dafc2fd	0.08582113
230	0x3db34106	0.087526366
231	0xbd3eb503	-0.046559345
232	0xbdfc52e7	-0.123205
233	0xbd1fbf10	-0.03900057
234	0x3e817251	0.2528253
235	0x3c60050e	0.01367308
236	0x3e0668ff	0.1312599
237	0xbe6cb14d	-0.2311451
238	0xbea6664d	-0.32499924
239	0x3dd4bddc	0.10387775
240	0x3e02fb06	0.1279107
241	0xbe8a7518	-0.2704246
242	0xbf032dc5	-0.51241714
243	0xbd7b90e5	-0.06141748
244	0x3ecc5a7f	0.39912793
245	0xbdee2a1f	-0.11629128
246	0xbefb61ee	-0.49098152
247	0xbe603ac4	-0.21897417
248	0x3f06ee0b	0.52706975
249	0xbeaa429a	-0.33253938
250	0xbef7f8d1	-0.4843202
251	0xbe6b09c4	-0.22952944
252	0x3dbaaa8b	0.0911456
253	0xbdaba89d	-0.0838177
254	0xbf2524b7	-0.6450915
255	0xbeb5036f	-0.35354182

onnx::LSTM_204 f4 [1, 256]
0	0x3ea65fa3	0.3249484
1	0x3df3c819	0.119034
2	0x3e124fdc	0.14288276
3	0x3ed552d6	0.4166476
4	0x3da4ad85	0.08040909
5	0xbd4d456c	-0.050115034
6	0x3e488464	0.19581753
7	0xbe0eadb3	-0.13933448
8	0xbd4f67e9	-0.050636206
9	0x3e98510f	0.29749343
10	0xbdee98c3	-0.11650231
11	0x3ec85bba	0.39132482
12	0x3e54739a	0.20747223
13	0x3e85a3d5	0.26101556
14	0x3eaf5f22	0.34252268
15	0x3ececef8	0.4039228
16	0x3e10a0d0	0.14123845
17	0x3f1d7c8d	0.61518174
18	0x3f2c5f3e	0.6733283
19	0x3f1e9883	0.61951464
20	0xbc9e2f20	-0.01930958
21	0x3e8a27dd	0.26983538
22	0x3f0b5740	0.5443001
23	0x3e47a64a	0.19497028
24	0x3df7c9c7	0.12099033
25	0x3f456826	0.7711204
26	0x3f009961	0.5023404
27	0x3e7a701b	0.24456827
28	0x3f75c50f	0.9600381
29	0x3da7c950	0.08192694
30	0x3e429fe8	0.19006312
31	0x3dc41ca8	0.09575778
32	0x3eaca1da	0.33717233
33	0x3ecdf2cc	0.40224302
34	0x3c99d2c7	0.018777264
35	0x3eb9fbdf	0.36324975
36	0x3e6f791b	0.23386042
37	0x3ddfa882	0.10920812
38	0x3f14a76a	0.58067954
39	0xbe439b6c	-0.19102257
40	0xbe03872e	-0.12844536
41	0x3ea80afa	0.32820874
42	0xbde6d1e1	-0.112705
43	0x3ec2429f	0.37941453
44	0xbe3e589b	-0.18588488
45	0x3eb28fc2	0.34875304
46	0x3ea87d6b	0.32908186
47	0x3d86583d	0.06559799
48	0x3e8edc9b	0.27902684
49	0x3f0e3c52	0.5556079
50	0x3f09a1d3	0.5376255
51	0x3d77d40e	0.060504965
52	0x3d85495c	0.06508133
53	0x3ef5519f	0.47913834
54	0x3eac7289	0.33681133
55	0x3ea7e58a	0.32792312
56	0x3e60a056	0.21936163
57	0x3e8889b3	0.26667556
58	0x3ec0e512	0.37674767
59	0x3e759272	0.23981646
60	0x3f6ed308	0.9329076
61	0x3e1cc223	0.15308432
62	0x3e6b2a43	0.2296534
63	0x3c3ba5ba	0.0114530865
64	0x3cf1b23c	0.029503934
65	0xbeaab90d	-0.33344308
66	0xbd6e9456	-0.058246933
67	0xbd0dc66d	-0.03461306
68	0xbdb80b6b	-0.08986553
69	0xbe143c46	-0.14476117
70	0x3d0d3e3d	0.034483183
71	0xbdf66237	-0.12030452
72	0xbdfb11c8	-0.12259251
73	0x3cff354d	0.031153345
74	0xbed10fe5	-0.4083244
75	0x3cd98217	0.02655129
76	0x3d963283	0.07333853
77	0xbda365fa	-0.07978435
78	0xbe53519d	-0.20636602
79	0xbea7d9e5	-0.32783428
80	0x3d0e0dcd	0.03468113
81	0x3cb9cd7e	0.022680994
82	0xbd376dac	-0.044782326
83	0xbe4d130b	-0.20026796
84	0xbe93249d	-0.2873887
85	0x3e27fe71	0.16405655
86	0x3ddcfaec	0.10790047
87	0x3e716d12	0.23576763
88	0xbe201f39	-0.1563691
89	0x3e01cc47	0.12675582
90	0x3e620f3f	0.22076128
91	0xbd1b9808	-0.037986785
92	0xbe29252f	-0.1651809
93	0x3e52a761	0.20571662
94	0xbea9797f	-0.33100507
95	0x3ca7a0d8	0.020462438
96	0x3e0b6f7d	0.13616748
97	0x3d75dc84	0.060024753
98	0x3d846c60	0.064659834
99	0xbd782513	-0.06058223
100	0xbe248fd2	-0.16070488
101	0xbd5237c5	-0.051322717
102	0x3e2c7fdd	0.16845651
103	0x3e22f5b7	0.15914045
104	0x3e260836	0.1621407
105	0xbcf044fc	-0.02932977
106	0xbe19d4f0	-0.15022635
107	0xbd9a434b	-0.07532366
108	0xbe82b745	-0.2553045
109	0x3e041243	0.12897591
110	0x3da6a8d4	0.0813767
111	0xbe9d3ecd	-0.30711976
112	0xbe3e1c12	-0.18565395
113	0xbe47627d	-0.19471164
114	0x3e5c50b0	0.21515155
115	0x3e047aa0	0.12937403
116	0xbe1741b4	-0.14771158
117	0x3dbd4ed2	0.092435494
118	0x3d9e82fb	0.07739826
119	0xbe02759f	-0.12740181
120	0x3e6df304	0.23237234
121	0xbdf8c467	-0.12146836
122	0xbd16749f	-0.036732312
123	0x3e87411d	0.26416865
124	0xbcbacc36	-0.022802453
125	0x3e1ad26d	0.15119334
126	0x3d57d39e	0.05269205
127	0xbd9842ca	-0.07434614
128	0x3e89a05b	0.26880154
129	0x3e4bdab4	0.19907647
130	0x3e1afe88	0.15136158
131	0x3f02b8d1	0.5106326
132	0xbc948460	-0.018129528
133	0xbd7fb227	-0.06242576
134	0x3e80c27c	0.2514838
135	0x3defd822	0.11711146
136	0xbcfbc7b7	-0.03073488
137	0x3de69806	0.11259465
138	0xbe3b155e	-0.1826987
139	0x3e86f4b2	0.26358563
140	0x3e9deee3	0.3084632
141	0x3e632483	0.22181897
142	0x3eca1920	0.39472294
143	0x3edf31d2	0.43592697
144	0x3e98d22f	0.29847857
145	0x3f46c0b1	0.77637774
146	0x3ed9cff7	0.42541477
147	0x3ef4962e	0.47770828
148	0x3cf47bc8	0.02984418
149	0x3e889caa	0.26682025
150	0x3ef25179	0.47327784
151	0x3e811030	0.25207663
152	0x3e8dd43a	0.2770098
153	0x3f04c135	0.5185731
154	0x3f16d483	0.5891802
155	0x3e5616c7	0.20907126
156	0x3f6589a0	0.89663124
157	0x3c8b3378	0.016992316
158	0xbe0b7e16	-0.13622317
159	0x3e84deac	0.25951135
160	0x3e76df8e	0.24108717
161	0x3e2af496	0.16694865
162	0xbdb823f7	-0.08991235
163	0x3ebfb442	0.37442213
164	0x3e9b1bfd	0.3029479
165	0x3ba12364	0.004917549
166	0x3f09cca5	0.5382789
167	0xbdb1c706	-0.08680539
168	0xbe4db658	-0.2008909
169	0x3ed46814	0.41485655
170	0xbe6e1852	-0.23251465
171	0x3e81132a	0.25209934
172	0x3da30186	0.07959275
173	0x3e6e58c5	0.2327605
174	0x3eda83fa	0.42678815
175	0x3e16c19d	0.14722295
176	0x3ebdc4a0	0.37064075
177	0x3f556d57	0.83369964
178	0x3f2bb25b	0.67069024
179	0x3e1d5eec	0.15368241
180	0x3def7494	0.116921574
181	0x3f083b48	0.53215456
182	0x3edf93b4	0.43667376
183	0x3eabac6d	0.33529988
184	0x3cd04a15	0.02542595
185	0x3f151306	0.5823215
186	0x3eef7c41	0.46774486
187	0x3d3163e2	0.043308146
188	0x3f80f19c	1.0073733
189	0x3c2860f5	0.010277023
190	0x3eac72df	0.3368139
191	0xbe06a0f2	-0.13147333
192	0xbda68c87	-0.08132272
193	0xbe820625	-0.25395313
194	0xbe43d7b3	-0.19125251
195	0xbd5a8d12	-0.05335719
196	0x3e180f29	0.14849533
197	0x3e20222a	0.15638033
198	0x3e93ba74	0.2885319
199	0xbd57eaf3	-0.0527143
200	0xbe0e27bc	-0.13882345
201	0xbe7f84df	-0.2495303
202	0xbe9ad6f1	-0.30242112
203	0x3e2ee695	0.17080148
204	0x3d629c04	0.05532457
205	0x3e018d41	0.1265154
206	0xbdf1b2e8	-0.11801702
207	0xbe38203b	-0.17981045
208	0x3e114202	0.14185336
209	0x3deec4c2	0.11658622
210	0xbd62a48a	-0.055332698
211	0xbe96f0a5	-0.29480472
212	0xbe02033d	-0.12696548
213	0x3e161dc0	0.14659786
214	0x3cdbc3df	0.026826797
215	0x3daa3891	0.083115704
216	0xbdc57d37	-0.096430235
217	0x3e4be0b1	0.19909932
218	0x3d0a3afc	0.033747658
219	0x3d6c26c5	0.05765416
220	0xbeacc01e	-0.33740324
221	0xbd48527a	-0.04890678
222	0xbee51796	-0.44744557
223	0xbe8cfae1	-0.27535155
224	0x3e3de21d	0.18543287
225	0x3cf705d5	0.030154148
226	0xbd6c9031	-0.0577547
227	0x3dcb43b6	0.09925024
228	0x3e247769	0.16061176
229	0xbe97fac7	-0.29683515
230	0xbdac1dbc	-0.08404109
231	0xbe096ed4	-0.13421184
232	0x3c47582d	0.012167019
233	0xbeb2df91	-0.34936193
234	0x3d91db9c	0.07121965
235	0xbc86c544	-0.016451485
236	0xbeb10bce	-0.3457932
237	0xbdb9f3e0	-0.090797186
238	0x3e2844d8	0.16432512
239	0xbeccd780	-0.40008163
240	0xbe9aab58	-0.3020885
241	0x3da0be13	0.07848754
242	0x3e755d78	0.23961437
243	0x3d1521e4	0.036409274
244	0x3dd6af04	0.104826
245	0x3e848269	0.25880745
246	0x3ce88d28	0.028387621
247	0xbd7b4b6a	-0.061351217
248	0xbd95d978	-0.073168695
249	0x3d7db72e	0.061942272
250	0x3d766ba2	0.06016124
251	0x3d42397c	0.047418103
252	0xbde8430b	-0.113409124
253	0x3e05a0bb	0.13049595
254	0x3e54c0de	0.20776698
255	0x3e383f21	0.17992832
